…
Downloading https://ultralytics.com/assets/VisDrone2019-DET-train.zip to 'D:\datasets\VisDrone\VisDrone2019-DET-train.zip': 100% ━━━━━━━━━━━━ 1.4GB 2.1MB/s 11:48
Unzipping D:\datasets\VisDrone\VisDrone2019-DET-train.zip to D:\datasets\VisDrone\VisDrone2019-DET-train...: 100% ━━━━━━━━━━━━ 12945/12945 1.1Kfiles/s 12.1s
Converting train: ━━━━━━━━━━━━ 6471 1.2Kit/s 5.3s
Converting val: ━━━━━━━━━━━━ 548 967.9it/s 0.5s
Converting test: ━━━━━━━━━━━━ 1610 1.3Kit/s 1.3s
Dataset download success  (732.1s), saved to D:\datasets

Overriding model.yaml nc=80 with nc=10

                   from  n    params  module                                       arguments                     
  0                  -1  1       464  ultralytics.nn.modules.conv.Conv             [3, 16, 3, 2]                 
  1                  -1  1      4672  ultralytics.nn.modules.conv.Conv             [16, 32, 3, 2]                
  2                  -1  1      7360  ultralytics.nn.modules.block.C2f             [32, 32, 1, True]             
  3                  -1  1     18560  ultralytics.nn.modules.conv.Conv             [32, 64, 3, 2]                
  4                  -1  2     49664  ultralytics.nn.modules.block.C2f             [64, 64, 2, True]             
  5                  -1  1     73984  ultralytics.nn.modules.conv.Conv             [64, 128, 3, 2]               
  6                  -1  2    197632  ultralytics.nn.modules.block.C2f             [128, 128, 2, True]           
  7                  -1  1    295424  ultralytics.nn.modules.conv.Conv             [128, 256, 3, 2]              
  8                  -1  1    460288  ultralytics.nn.modules.block.C2f             [256, 256, 1, True]           
  9                  -1  1    164608  ultralytics.nn.modules.block.SPPF            [256, 256, 5]                 
 10                  -1  1         0  torch.nn.modules.upsampling.Upsample         [None, 2, 'nearest']          
 11             [-1, 6]  1         0  ultralytics.nn.modules.conv.Concat           [1]                           
 12                  -1  1    148224  ultralytics.nn.modules.block.C2f             [384, 128, 1]                 
 13                  -1  1         0  torch.nn.modules.upsampling.Upsample         [None, 2, 'nearest']          
 14             [-1, 4]  1         0  ultralytics.nn.modules.conv.Concat           [1]                           
 15                  -1  1     37248  ultralytics.nn.modules.block.C2f             [192, 64, 1]                  
 16                  -1  1     36992  ultralytics.nn.modules.conv.Conv             [64, 64, 3, 2]                
 17            [-1, 12]  1         0  ultralytics.nn.modules.conv.Concat           [1]                           
 18                  -1  1    123648  ultralytics.nn.modules.block.C2f             [192, 128, 1]                 
 19                  -1  1    147712  ultralytics.nn.modules.conv.Conv             [128, 128, 3, 2]              
 20             [-1, 9]  1         0  ultralytics.nn.modules.conv.Concat           [1]                           
 21                  -1  1    493056  ultralytics.nn.modules.block.C2f             [384, 256, 1]                 
 22        [15, 18, 21]  1    753262  ultralytics.nn.modules.head.Detect           [10, 16, None, [64, 128, 256]]
Model summary: 130 layers, 3,012,798 parameters, 3,012,782 gradients, 8.2 GFLOPs

Transferred 319/355 items from pretrained weights
Freezing layer 'model.22.dfl.conv.weight'
AMP: running Automatic Mixed Precision (AMP) checks...
AMP: checks passed 
train: Fast image access  (ping: 0.10.0 ms, read: 1275.4442.1 MB/s, size: 260.7 KB)
train: Scanning D:\datasets\VisDrone\labels\train... 6471 images, 0 backgrounds, 0 corrupt: 100% ━━━━━━━━━━━━ 6471/6471 1.8Kit/s 3.5s
…
